…
,{"stream_name":"stdout","time":172.509960515,"data":"\r\u001b[KDownloading https://ultralytics.com/assets/Arial.ttf to '/root/.config/Ultralytics/Arial.ttf': 100% ━━━━━━━━━━━━ 755.1KB 16.5MB/s 0.0s\n"}
,{"stream_name":"stdout","time":172.510529396,"data":"Overriding model.yaml nc=80 with nc=1\n"}
,{"stream_name":"stdout","time":172.510891134,"data":"\n"}
,{"stream_name":"stdout","time":172.510911047,"data":"                   from  n    params  module                                       arguments                     \n"}
,{"stream_name":"stdout","time":172.513011644,"data":"  0                  -1  1       464  ultralytics.nn.modules.conv.Conv             [3, 16, 3, 2]                 \n"}
,{"stream_name":"stdout","time":172.513737463,"data":"  1                  -1  1      4672  ultralytics.nn.modules.conv.Conv             [16, 32, 3, 2]                \n"}
,{"stream_name":"stdout","time":172.515364396,"data":"  2                  -1  1      7360  ultralytics.nn.modules.block.C2f             [32, 32, 1, True]             \n"}
,{"stream_name":"stdout","time":172.51612192,"data":"  3                  -1  1     18560  ultralytics.nn.modules.conv.Conv             [32, 64, 3, 2]                \n"}
,{"stream_name":"stdout","time":172.51913722,"data":"  4                  -1  2     49664  ultralytics.nn.modules.block.C2f             [64, 64, 2, True]             \n"}
,{"stream_name":"stdout","time":172.520406708,"data":"  5                  -1  1     73984  ultralytics.nn.modules.conv.Conv             [64, 128, 3, 2]               \n"}
,{"stream_name":"stdout","time":172.524258329,"data":"  6                  -1  2    197632  ultralytics.nn.modules.block.C2f             [128, 128, 2, True]           \n"}
,{"stream_name":"stdout","time":172.527684671,"data":"  7                  -1  1    295424  ultralytics.nn.modules.conv.Conv             [128, 256, 3, 2]              \n"}
,{"stream_name":"stdout","time":172.536238564,"data":"  8                  -1  1    460288  ultralytics.nn.modules.block.C2f             [256, 256, 1, True]           \n"}
,{"stream_name":"stdout","time":172.538799537,"data":"  9                  -1  1    164608  ultralytics.nn.modules.block.SPPF            [256, 256, 5]                 \n"}
,{"stream_name":"stdout","time":172.539164675,"data":" 10                  -1  1         0  torch.nn.modules.upsampling.Upsample         [None, 2, 'nearest']          \n"}
,{"stream_name":"stdout","time":172.539311274,"data":" 11             [-1, 6]  1         0  ultralytics.nn.modules.conv.Concat           [1]                           \n"}
,{"stream_name":"stdout","time":172.542317304,"data":" 12                  -1  1    148224  ultralytics.nn.modules.block.C2f             [384, 128, 1]                 \n"}
,{"stream_name":"stdout","time":172.542655075,"data":" 13                  -1  1         0  torch.nn.modules.upsampling.Upsample         [None, 2, 'nearest']          \n"}
,{"stream_name":"stdout","time":172.542780085,"data":" 14             [-1, 4]  1         0  ultralytics.nn.modules.conv.Concat           [1]                           \n"}
,{"stream_name":"stdout","time":172.54440127,"data":" 15                  -1  1     37248  ultralytics.nn.modules.block.C2f             [192, 64, 1]                  \n"}
,{"stream_name":"stdout","time":172.545228795,"data":" 16                  -1  1     36992  ultralytics.nn.modules.conv.Conv             [64, 64, 3, 2]                \n"}
,{"stream_name":"stdout","time":172.545574313,"data":" 17            [-1, 12]  1         0  ultralytics.nn.modules.conv.Concat           [1]                           \n"}
,{"stream_name":"stdout","time":172.548122789,"data":" 18                  -1  1    123648  ultralytics.nn.modules.block.C2f             [192, 128, 1]                 \n"}
,{"stream_name":"stdout","time":172.549922363,"data":" 19                  -1  1    147712  ultralytics.nn.modules.conv.Conv             [128, 128, 3, 2]              \n"}
,{"stream_name":"stdout","time":172.550039968,"data":" 20             [-1, 9]  1         0  ultralytics.nn.modules.conv.Concat           [1]                           \n"}
,{"stream_name":"stdout","time":172.555817968,"data":" 21                  -1  1    493056  ultralytics.nn.modules.block.C2f             [384, 256, 1]                 \n"}
,{"stream_name":"stdout","time":172.569272715,"data":" 22        [15, 18, 21]  1    751507  ultralytics.nn.modules.head.Detect           [1, 16, None, [64, 128, 256]] \n"}
,{"stream_name":"stdout","time":172.730817246,"data":"Model summary: 130 layers, 3,011,043 parameters, 3,011,027 gradients, 8.2 GFLOPs\n"}
,{"stream_name":"stdout","time":172.730907834,"data":"\n"}
,{"stream_name":"stdout","time":172.939048395,"data":"Transferred 319/355 items from pretrained weights\n"}
,{"stream_name":"stdout","time":173.089431405,"data":"Freezing layer 'model.22.dfl.conv.weight'\n"}
…
